Model: "sequential"
_________________________________________________________________
Layer (type)                 Output Shape              Param #   
=================================================================
conv2d (Conv2D)              (None, 30, 30, 64)        1792      
_________________________________________________________________
max_pooling2d (MaxPooling2D) (None, 15, 15, 64)        0         
_________________________________________________________________
conv2d_1 (Conv2D)            (None, 13, 13, 64)        36928     
_________________________________________________________________
max_pooling2d_1 (MaxPooling2 (None, 6, 6, 64)          0         
_________________________________________________________________
flatten (Flatten)            (None, 2304)              0         
_________________________________________________________________
dense (Dense)                (None, 512)               1180160   
_________________________________________________________________
dense_1 (Dense)              (None, 10)                5130      
=================================================================
Total params: 1,224,010
Trainable params: 1,224,010
Non-trainable params: 0
_________________________________________________________________
None

Epoch 00001: LearningRateScheduler reducing learning rate to 0.01.
Epoch 1/200
  1/313 [..............................] - ETA: 0s - loss: 2.2982 - accuracy: 0.1094
…
